…
wandb: Run data is saved locally in C:\Users\monst\OneDrive\Imágenes\Escritorio\Repositorio\reconocimiento facial prueba\wandb\run-20221112_135409-1nqaqd6u
wandb: Run `wandb offline` to turn off syncing.
wandb: Syncing run swept-energy-1
wandb:  View project at https://wandb.ai/carlos_rhm/Reconocimiento_Facial_v3.6
wandb:  View run at https://wandb.ai/carlos_rhm/Reconocimiento_Facial_v3.6/runs/1nqaqd6u
Model: "sequential"
_________________________________________________________________
 Layer (type)                Output Shape              Param #
=================================================================
 conv2d (Conv2D)             (None, 126, 126, 32)      896

 activation (Activation)     (None, 126, 126, 32)      0

 max_pooling2d (MaxPooling2D  (None, 63, 63, 32)       0
 )

 conv2d_1 (Conv2D)           (None, 61, 61, 64)        18496

 activation_1 (Activation)   (None, 61, 61, 64)        0

 max_pooling2d_1 (MaxPooling  (None, 30, 30, 64)       0
 2D)

 conv2d_2 (Conv2D)           (None, 28, 28, 128)       73856

 activation_2 (Activation)   (None, 28, 28, 128)       0

 max_pooling2d_2 (MaxPooling  (None, 14, 14, 128)      0
 2D)

 flatten (Flatten)           (None, 25088)             0

 dense (Dense)               (None, 64)                1605696

 activation_3 (Activation)   (None, 64)                0

 dropout (Dropout)           (None, 64)                0

 dropout_1 (Dropout)         (None, 64)                0

 dense_1 (Dense)             (None, 40)                2600

 activation_4 (Activation)   (None, 40)                0

=================================================================
Total params: 1,701,544
Trainable params: 1,701,544
Non-trainable params: 0
_________________________________________________________________
wandb: WARNING The save_model argument by default saves the model in the HDF5 format that cannot save custom objects like subclassed models and custom layers. This behavior will be deprecated in a future release in favor of the SavedModel format. Meanwhile, the HDF5 model is saved as W&B files and the SavedModel as W&B Artifacts.
…
